…
0.0005, workers=8, workspace=None\n\u001b[34m\u001b[1mtrain:\u001b[0m /kaggle/working/car_parts_dataset_linked/train... found 19251 images in 50 classes ✅ \n\u001b[34m\u001b[1mval:\u001b[0m /kaggle/working/car_parts_dataset_linked/val... found 5480 images in 50 classes ✅ \n\u001b[34m\u001b[1mtest:\u001b[0m /kaggle/working/car_parts_dataset_linked/test... found 2089 images in 50 classes ✅ \nOverriding model.yaml nc=80 with nc=50\n\n                   from  n    params  module                                       arguments                     \n  0                  -1  1      1856  ultralytics.nn.modules.conv.Conv             [3, 64, 3, 2]                 \n  1                  -1  1     73984  ultralytics.nn.modules.conv.Conv             [64, 128, 3, 2]               \n  2                  -1  1    111872  ultralytics.nn.modules.block.C3k2            [128, 256, 1, True, 0.25]     \n  3                  -1  1    590336  ultralytics.nn.modules.conv.Conv             [256, 256, 3, 2]              \n  4                  -1  1    444928  ultralytics.nn.modules.block.C3k2            [256, 512, 1, True, 0.25]     \n  5                  -1  1   2360320  ultralytics.nn.modules.conv.Conv             [512, 512, 3, 2]              \n  6                  -1  1   1380352  ultralytics.nn.modules.block.C3k2            [512, 512, 1, True]           \n  7                  -1  1   2360320  ultralytics.nn.modules.conv.Conv             [512, 512, 3, 2]              \n  8                  -1  1   1380352  ultralytics.nn.modules.block.C3k2            [512, 512, 1, True]           \n  9                  -1  1    990976  ultralytics.nn.modules.block.C2PSA           [512, 512, 1]                 \n 10                  -1  1    721970  ultralytics.nn.modules.head.Classify         [512, 50]                     \nYOLO11m-cls summary: 106 layers, 10,417,266 parameters, 10,417,266 gradients, 39.7 GFLOPs\nTransferred 294/296 items from pretrained weights\n\u001b[34m\u001b[1mAMP: \u001b[0mrunning Automatic Mixed Precision (AMP) checks...\n\u001b[KDownloading https://github.com/ultralytics/assets/releases/download/v8.4.0/yolo26n.pt to 'yolo26n.pt': 100% ━━━━━━━━━━━━ 5.3MB 69.4MB/s
…
